PINN/2_7_7_1.pth (torch, 3349 bytes, 5 tensors)

net.0.weight f4 [7, 2]
0.028644342 0.15923671 0.43886694 0.87294155 -0.0034556384 0.028378373 0.5247489 -0.68730736
-0.33964834 0.3594269 0.57871634 -0.6758253 -0.5522664 -0.24710642
00000000: 8aa7 ea3c f30e 233e 2bb3 e03e 1979 5f3f
00000010: fe77 62bb c379 e83c f255 063f 60f3 2fbf
00000020: 63e6 adbe cd06 b83e c126 143f e302 2dbf
00000030: 5561 0dbf 7709 7dbe

net.0.bias f4 [7]
0.4596384 0.10701982 0.66327465 1.0923703 -0.039842732 0.4590372 0.6576617
00000000: b955 eb3e 352d db3d 5ecc 293f cad2 8b3f
00000010: 2232 23bd ed06 eb3e 845c 283f

net.2.weight f4 [7, 7]
0.38935947 0.28364193 -0.009168512 -0.17190382 0.29768777 -0.1440761 0.39323273 0.31935897
0.02255567 -0.0028837305 -0.3185197 -0.5073028 0.1649159 -0.031463947 0.16127889 -0.28240433
0.34491295 -0.29459393 0.19625115 -0.51837105 0.13179566 0.3821122 -0.7045715 0.184799
-0.613924 -1.2443591 -0.800855 -1.2059772 -0.028684942 -0.62721866 0.34098643 -0.41344932
0.5208903 -0.39856726 0.5457446 -0.47662678 -0.010702187 -0.40318045 -0.30229068 0.046548262
-0.016448691 -0.044455897 0.42360845 -0.3018302 0.3057348 0.16287515 -0.44641525 -0.20987679
-0.13783742
00000000: 205a c73e 8439 913e 8737 16bc 8e07 30be
00000010: 886a 983e af88 13be cd55 c93e 0583 a33e
00000020: abc6 b83c f8fc 3cbb 0415 a3be 99de 01bf
00000030: b7df 283e 57e0 00bd 4b26 253e 4d97 90be
00000040: 6e98 b03e 04d5 96be 10f6 483e f7b3 04bf
00000050: 71f5 063e 36a4 c33e cc5e 34bf f33b 3d3e
00000060: 202a 1dbf 2947 9fbf d504 4dbf 765d 9abf
00000070: affc eabc 6791 20bf c695 ae3e a1af d3be
00000080: 1159 053f 0211 ccbe ebb5 0b3f 6d08 f4be
00000090: 3a58 2fbc ab6d cebe d8c5 9abe 64a9 3e3d
000000a0: 68bf 86bc 6317 36bd 35e3 d83e 7d89 9abe
000000b0: 4689 9c3e bec8 263e 8a90 e4be f1e9 56be
000000c0: 4125 0dbe

net.2.bias f4 [7]
0.15011978 0.19892123 0.37216002 0.6801003 -0.34070092 -0.4425019 0.1473758
00000000: 00b9 193e 02b2 4b3e c28b be3e 0e1b 2e3f
00000010: 5a70 aebe 9c8f e2be afe9 163e

net.5.weight f4 [1, 7]
0.2860011 -0.51774246 -0.41423175 -0.51204 -0.35387504 0.36968458 -0.37046245
00000000: bc6e 923e c58a 04bf 2f16 d4be 0e15 03bf
00000010: 1c2f b5be 4c47 bd3e 41ad bdbe
