PINN/2_7_7_1.pth (torch, 3349 bytes, 5 tensors)

net.0.weight f4 [7, 2]
00000000: bad6 47bf 1805 f03e bc00 c53e 587d 373e
00000010: 3897 3d3e fcd7 633f 0afb ea3e e4cb c43e
00000020: cb4e 093f 3f00 9b3e c738 673c 0bfb 6dbe
00000030: 8cd1 dfbe 5974 9ebf
-0.7806202 0.46878886 0.38477123 0.17918909 0.18514717 0.8900144 0.45894653 0.38436806
0.53635854 0.30273625 0.014112658 -0.23240297 -0.4371456 -1.2379256

net.0.bias f4 [7]
00000000: 44a2 2cbf e2c0 4d3f 11f6 91bd 7c1a 36bf
00000010: 6834 60bf 1f0f 30bf 735e 51bf
-0.674351 0.8037244 -0.071270116 -0.7113416 -0.87579966 -0.6877307 -0.81784743

net.2.weight f4 [7, 7]
00000000: 014a e03e d47c db3e 21dc 49bd 255b cbbd
00000010: 3f55 01be 7068 ecbe 07ef dbbd 2dd6 c73e
00000020: cd0e ddbe 1375 99be d3bd 95be 9b01 b4be
00000030: dca3 7cbe 4a23 873e c54f 16bf ff6e 2e3e
00000040: 454d 023f 6ef4 773e bf3b 063e 3068 b13b
00000050: 9c28 0a3e 1990 fe3e 3613 883e 9874 a4be
00000060: 8f0e b43e e311 c13e 5c63 fdbe b9bc 1d3e
00000070: 6977 3639 de7d b03e deb5 583e ff7a 84be
00000080: 4cb8 ae3d a719 b4be 6a9f 783d 94f0 cd3e
00000090: 6207 bb3e 39fc 92be 5c2f 87bd 0c61 da3e
000000a0: 3e32 f6bd 8a56 38bd 5439 6dbe 3999 cbbe
000000b0: cbc1 7e3f 2f06 5ebf 75d5 27bf a7fd 0a3e
000000c0: 64ef a7be
0.4380646 0.42868674 -0.049282197 -0.09929494 -0.12630175 -0.4617343 -0.1073895 0.3903059
-0.43175355 -0.29972133 -0.29246387 -0.35157475 -0.24671882 0.2639411 -0.5871547 0.17034529
0.50899154 0.24214336 0.13108729 0.0054140314 0.13492054 0.49719313 0.26577157 -0.32120204
0.35167357 0.3770896 -0.49489868 0.15404023 0.00017401356 0.3447103 0.21163127 -0.2587509
0.085312456 -0.3517582 0.060698904 0.4022261 0.3652907 -0.28708056 -0.0660083 0.42652166
-0.12021302 -0.045004405 -0.231664 -0.39765337 0.99514455 -0.86728185 -0.65560085 0.13573323
-0.32799828

net.2.bias f4 [7]
00000000: 721c bc3e 4668 e0bd 0f10 fbbb 7dac 113e
00000010: 0a43 f63e 874f 003d c556 b1be
0.36740452 -0.109573886 -0.0076618264 0.14225955 0.48098022 0.031325843 -0.34636512

net.5.weight f4 [1, 7]
00000000: 4bfb aabe 938b 37be a9ec 473e 07f4 e3be
00000010: 734f 0ebf 6965 14bf 0e25 f13e
-0.33394846 -0.17924337 0.19523872 -0.44522116 -0.5558998 -0.5796724 0.47098583
