PINN/2_7_7_1.pth (torch, 3349 bytes, 5 tensors)

net.0.weight f4 [7, 2]
00000000: d234 4ebe 2639 d63b 8ff0 963a f05a 6abf
00000010: 0502 2e3e 8998 45bf f9a2 953e b958 77bd
00000020: 5918 67bf 505a 79bd 44db 083f 1910 0f3e
00000030: d698 073f ddd9 f4bd
-0.20137337 0.0065375743 0.0011515784 -0.9154501 0.16992958 -0.77185875 0.292259 -0.060387347
-0.90271527 -0.060877144 0.5345957 0.13970985 0.52967584 -0.119556166

net.0.bias f4 [7]
00000000: 7ca0 9cbe a86e a2be da65 633f 70d9 e83e
00000010: d312 2f3c 36f6 c9be b089 d4be
-0.3059119 -0.3172505 0.8882729 0.45478392 0.01068564 -0.39445657 -0.41511297

net.2.weight f4 [7, 7]
00000000: a4ee 873e 60d9 123f b9c9 41bd c98c e3bd
00000010: 61ba eb3e 7eca 413e b2ff 1b3e be6f 9c3b
00000020: f981 413e b729 bcbd 9840 b73e a30d c03d
00000030: 8ec7 2f3e 90db b5ba 3631 9f3e 4adf f8be
00000040: b86a 663f b1cf bf3e 21de 093f 6596 30bf
00000050: 4152 14bf f6e7 c9be fa39 1ebe 2adb e13d
00000060: e2e4 0a3f cb09 263e c3f4 5e3e e14c 5ebe
00000070: 3db7 cf3e 8167 0bbf edcd 203f a5bc acbd
00000080: 4091 98be b8f0 f4be 56ad 5bbe 036a 1cbe
00000090: 2139 0d3d edc4 603e f127 2b3f 366a 1dbf
000000a0: 71ca d43e 586f b63e 35ce 6b3f b8f5 17be
000000b0: 04a9 ce3e 7d11 2fbf 1689 2bbf dc7a c43e
000000c0: 326a 03bf
0.26549256 0.5736294 -0.04731152 -0.11110837 0.46040633 0.18924901 0.15234259 0.004774063
0.18897237 -0.09187644 0.3579147 0.09377601 0.17165968 -0.0013874639 0.31092232 -0.48607856
0.9000659 0.37463143 0.53854567 -0.68979484 -0.5793801 -0.39434785 -0.15451804 0.1102813
0.542555 0.16214673 0.21773057 -0.21709014 0.40569487 -0.5445481 0.6281422 -0.084344186
-0.29798317 -0.47839904 -0.21452841 -0.15274815 0.03447831 0.21950121 0.6685782 -0.6149019
0.415607 0.35631824 0.9211152 -0.14839828 0.40363324 -0.6838606 -0.6700605 0.38374984
-0.51333916

net.2.bias f4 [7]
00000000: 4881 003e 2719 803e 83d6 d13e 2aae 7e3e
00000010: b45a d2be 3c88 013f 3c1a d5be
0.12549317 0.2501919 0.40983972 0.24871126 -0.41084826 0.505985 -0.41621578

net.5.weight f4 [1, 7]
00000000: 562b 7fbe 512e e3be 27e4 953e 2fe4 94be
00000010: 2555 093f 0880 b13e ca44 1a3f
-0.24918875 -0.44371274 0.2927563 -0.2908034 0.53645545 0.34667993 0.60261214
